…
/home/parastiwari.rs.cse19.iitbhu/GADLRuleBased/utils/io.py:512: UserWarning: The given NumPy array is not writable, and PyTorch does not support non-writable tensors. This means writing to this tensor will result in undefined behavior. You may want to copy the array to protect its data or make it writable before converting it to a tensor. This type of warning will be suppressed for the rest of this program. (Triggered internally at  ../torch/csrc/utils/tensor_numpy.cpp:178.)
  embedding[i, :] = torch.Tensor(w2v['<s>'])
INFO:root:MultiViewMultiTaskBasicClassifySeq2Seq(
  (enc_classifier): WordMultiHopAttnClassifier(
    (attention_layer): Attention(
      (v): Linear(in_features=512, out_features=1, bias=False)
      (decode_project): Linear(in_features=512, out_features=512, bias=True)
      (memory_project): Linear(in_features=512, out_features=512, bias=False)
      (softmax): MaskedSoftmax()
      (tanh): Tanh()
    )
    (glimpse_layer): Attention(
      (v): Linear(in_features=512, out_features=1, bias=False)
      (decode_project): Linear(in_features=512, out_features=512, bias=True)
      (memory_project): Linear(in_features=512, out_features=512, bias=False)
      (softmax): MaskedSoftmax()
      (tanh): Tanh()
    )
    (classifier): Sequential(
      (0): Linear(in_features=512, out_features=512, bias=True)
      (1): Dropout(p=0.1, inplace=False)
      (2): ReLU()
      (3): Linear(in_features=512, out_features=5, bias=True)
      (4): LogSoftmax(dim=1)
    )
  )
  (dec_classifier): WordMultiHopAttnClassifier(
    (attention_layer): Attention(
      (v): Linear(in_features=512, out_features=1, bias=False)
      (decode_project): Linear(in_features=512, out_features=512, bias=True)
      (memory_project): Linear(in_features=512, out_features=512, bias=False)
      (softmax): MaskedSoftmax()
      (tanh): Tanh()
    )
    (glimpse_layer): Attention(
      (v): Linear(in_features=512, out_features=1, bias=False)
      (decode_project): Linear(in_features=512, out_features=512, bias=True)
      (memory_project): Linear(in_features=512, out_features=512, bias=False)
      (softmax): MaskedSoftmax()
      (tanh): Tanh()
    )
    (classifier): Sequential(
      (0): Linear(in_features=512, out_features=512, bias=True)
      (1): Dropout(p=0.1, inplace=False)
      (2): ReLU()
      (3): Linear(in_features=512, out_features=5, bias=True)
      (4): LogSoftmax(dim=1)
    )
  )
  (encoder): TwoLayerRNNEncoder(
    (embedding): Embedding(50004, 128, padding_idx=0)
    (dropout_layer): Dropout(p=0.0, inplace=False)
    (first_layer_rnn): GRU(128, 256, batch_first=True, bidirectional=True)
    (second_layer_rnn): GRU(512, 256, batch_first=True, bidirectional=True)
  )
  (decoder): MultiTaskBasicDecoder(
    (dropout): Dropout(p=0.0, inplace=False)
    (embedding): Embedding(50004, 128, padding_idx=0)
    (rnn): GRU(128, 512)
    (word_attention_layer): Attention(
      (v): Linear(in_features=512, out_features=1, bias=False)
      (decode_project): Linear(in_features=512, out_features=512, bias=True)
      (memory_project): Linear(in_features=512, out_features=512, bias=False)
      (softmax): MaskedSoftmax()
      (tanh): Tanh()
    )
    (p_gen_linear): Linear(in_features=1152, out_features=1, bias=True)
    (sigmoid): Sigmoid()
    (vocab_dist_linear_1): Linear(in_features=1024, out_features=512, bias=True)
    (vocab_dist_linear_2): Linear(in_features=512, out_features=50004, bias=True)
    (softmax): MaskedSoftmax()
  )
)
